…
0 min, 0 sec: Outputs being written to ['011920-214614-validation-auc-results.csv', '011920-214614-train-auc-results.csv']
0 min, 2 sec: Loaded data with shape (2800000, 201)
0 min, 2 sec: Starting cross-validation
0 min, 2 sec: Using config: layers:32+32-learn_rate:0.001-batch_size:128-dropout_rate:0.5-bathcnorm:True
0 min, 2 sec: Starting fold 0
0 min, 2 sec: Model Summary:
_________________________________________________________________
Layer (type)                 Output Shape              Param #   
=================================================================
dense_10 (Dense)             (None, 32)                6432      
_________________________________________________________________
batch_normalization_7 (Batch (None, 32)                128       
_________________________________________________________________
activation_7 (Activation)    (None, 32)                0         
_________________________________________________________________
dropout_7 (Dropout)          (None, 32)                0         
_________________________________________________________________
dense_11 (Dense)             (None, 32)                1056      
_________________________________________________________________
batch_normalization_8 (Batch (None, 32)                128       
_________________________________________________________________
activation_8 (Activation)    (None, 32)                0         
_________________________________________________________________
dropout_8 (Dropout)          (None, 32)                0         
_________________________________________________________________
dense_12 (Dense)             (None, 1)                 33        
=================================================================
Total params: 7,777
Trainable params: 7,649
Non-trainable params: 128
_________________________________________________________________

0 min, 2 sec: Starting training...
0 min, 4 sec: Epoch: 0  AUC: 0.5273320460749717
0 min, 5 sec: Epoch: 1  AUC: 0.6015935370752602
0 min, 5 sec: Epoch: 2  AUC: 0.6208802183900394
0 min, 6 sec: Epoch: 3  AUC: 0.6786026588543401
…
