…
0 min, 0 sec: Outputs being written to ['012120-091847-validation-auc-results.csv', '012120-091847-train-auc-results.csv']
0 min, 2 sec: Loaded data with shape (2800000, 201)
0 min, 4 sec: Starting cross-validation
0 min, 4 sec: Using config: layers:128+128-learn_rate:0.001-batch_size:128-dropout_rate:0.2-bathcnorm:True
0 min, 4 sec: Starting fold 0
0 min, 6 sec: Model Summary:
Model: "sequential"
_________________________________________________________________
Layer (type)                 Output Shape              Param #   
=================================================================
dense (Dense)                (None, 128)               25728     
_________________________________________________________________
batch_normalization (BatchNo (None, 128)               512       
_________________________________________________________________
activation (Activation)      (None, 128)               0         
_________________________________________________________________
dropout (Dropout)            (None, 128)               0         
_________________________________________________________________
dense_1 (Dense)              (None, 128)               16512     
_________________________________________________________________
batch_normalization_1 (Batch (None, 128)               512       
_________________________________________________________________
activation_1 (Activation)    (None, 128)               0         
_________________________________________________________________
dropout_1 (Dropout)          (None, 128)               0         
_________________________________________________________________
dense_2 (Dense)              (None, 1)                 129       
=================================================================
Total params: 43,393
Trainable params: 42,881
Non-trainable params: 512
_________________________________________________________________

0 min, 6 sec: Starting training...
2 min, 60 sec: Epoch: 0  val_auc: 0.8045903788326652
6 min, 49 sec: Epoch: 1  val_auc: 0.8122558583084216
10 min, 29 sec: Epoch: 2  val_auc: 0.8145222965339374
…
