…
0 min, 0 sec: Outputs being written to ['012120-130857-validation-auc-results.csv', '012120-130857-train-auc-results.csv']
0 min, 2 sec: Loaded data with shape (2800000, 201)
0 min, 4 sec: Starting cross-validation
0 min, 4 sec: Using config: layers:32+32+32-learn_rate:0.001-batch_size:128-dropout_rate:0.2-bathcnorm:True
0 min, 4 sec: Starting fold 0
0 min, 6 sec: Model Summary:
Model: "sequential"
_________________________________________________________________
Layer (type)                 Output Shape              Param #   
=================================================================
dense (Dense)                (None, 32)                6432      
_________________________________________________________________
batch_normalization (BatchNo (None, 32)                128       
_________________________________________________________________
activation (Activation)      (None, 32)                0         
_________________________________________________________________
dropout (Dropout)            (None, 32)                0         
_________________________________________________________________
dense_1 (Dense)              (None, 32)                1056      
_________________________________________________________________
batch_normalization_1 (Batch (None, 32)                128       
_________________________________________________________________
activation_1 (Activation)    (None, 32)                0         
_________________________________________________________________
dropout_1 (Dropout)          (None, 32)                0         
_________________________________________________________________
dense_2 (Dense)              (None, 32)                1056      
_________________________________________________________________
batch_normalization_2 (Batch (None, 32)                128       
_________________________________________________________________
activation_2 (Activation)    (None, 32)                0         
_________________________________________________________________
dropout_2 (Dropout)          (None, 32)                0         
_________________________________________________________________
dense_3 (Dense)              (None, 1)                 33        
=================================================================
Total params: 8,961
Trainable params: 8,769
Non-trainable params: 192
_________________________________________________________________

0 min, 6 sec: Starting training...
2 min, 49 sec: Epoch: 0  val_auc: 0.7976851322494245
6 min, 24 sec: Epoch: 1  val_auc: 0.8044539415043486
10 min, 1 sec: Epoch: 2  val_auc: 0.8077771589813463
…
