…
0 min, 0 sec: Outputs being written to ['012120-165300-validation-auc-results.csv', '012120-165300-train-auc-results.csv']
0 min, 2 sec: Loaded data with shape (2800000, 201)
0 min, 4 sec: Starting cross-validation
0 min, 4 sec: Using config: layers:64+64+64+64-learn_rate:0.001-batch_size:128-dropout_rate:0.2-bathcnorm:False
0 min, 4 sec: Starting fold 0
0 min, 6 sec: Model Summary:
Model: "sequential"
_________________________________________________________________
Layer (type)                 Output Shape              Param #   
=================================================================
dense (Dense)                (None, 64)                12864     
_________________________________________________________________
activation (Activation)      (None, 64)                0         
_________________________________________________________________
dropout (Dropout)            (None, 64)                0         
_________________________________________________________________
dense_1 (Dense)              (None, 64)                4160      
_________________________________________________________________
activation_1 (Activation)    (None, 64)                0         
_________________________________________________________________
dropout_1 (Dropout)          (None, 64)                0         
_________________________________________________________________
dense_2 (Dense)              (None, 64)                4160      
_________________________________________________________________
activation_2 (Activation)    (None, 64)                0         
_________________________________________________________________
dropout_2 (Dropout)          (None, 64)                0         
_________________________________________________________________
dense_3 (Dense)              (None, 64)                4160      
_________________________________________________________________
activation_3 (Activation)    (None, 64)                0         
_________________________________________________________________
dropout_3 (Dropout)          (None, 64)                0         
_________________________________________________________________
dense_4 (Dense)              (None, 1)                 65        
=================================================================
Total params: 25,409
Trainable params: 25,409
Non-trainable params: 0
_________________________________________________________________

0 min, 6 sec: Starting training...
2 min, 27 sec: Epoch: 0  val_auc: 0.7875631055993793
5 min, 42 sec: Epoch: 1  val_auc: 0.7964101580106822
8 min, 52 sec: Epoch: 2  val_auc: 0.7966622754435478
…
