…
0 min, 0 sec: Outputs being written to ['012120-212217-validation-auc-results.csv', '012120-212217-train-auc-results.csv']
0 min, 6 sec: Loaded data with shape (2800000, 201)
0 min, 8 sec: Starting cross-validation
0 min, 8 sec: Using config: layers:128+128+128+64+32-learn_rate:0.001-batch_size:128-dropout_rate:0.2-bathcnorm:False
0 min, 9 sec: Starting fold 0
0 min, 12 sec: Model Summary:
Model: "sequential"
_________________________________________________________________
Layer (type)                 Output Shape              Param #   
=================================================================
dense (Dense)                (None, 128)               25728     
_________________________________________________________________
activation (Activation)      (None, 128)               0         
_________________________________________________________________
dropout (Dropout)            (None, 128)               0         
_________________________________________________________________
dense_1 (Dense)              (None, 128)               16512     
_________________________________________________________________
activation_1 (Activation)    (None, 128)               0         
_________________________________________________________________
dropout_1 (Dropout)          (None, 128)               0         
_________________________________________________________________
dense_2 (Dense)              (None, 128)               16512     
_________________________________________________________________
activation_2 (Activation)    (None, 128)               0         
_________________________________________________________________
dropout_2 (Dropout)          (None, 128)               0         
_________________________________________________________________
dense_3 (Dense)              (None, 64)                8256      
_________________________________________________________________
activation_3 (Activation)    (None, 64)                0         
_________________________________________________________________
dropout_3 (Dropout)          (None, 64)                0         
_________________________________________________________________
dense_4 (Dense)              (None, 32)                2080      
_________________________________________________________________
activation_4 (Activation)    (None, 32)                0         
_________________________________________________________________
dropout_4 (Dropout)          (None, 32)                0         
_________________________________________________________________
dense_5 (Dense)              (None, 1)                 33        
=================================================================
Total params: 69,121
Trainable params: 69,121
Non-trainable params: 0
_________________________________________________________________

0 min, 12 sec: Starting training...
4 min, 43 sec: Epoch: 0  val_auc: 0.7892603661937831
10 min, 16 sec: Epoch: 1  val_auc: 0.7932564776318848
16 min, 20 sec: Epoch: 2  val_auc: 0.7844458915627014
…
