…
0 min, 0 sec: Outputs being written to ['012220-171603-validation-auc-results.csv', '012220-171603-train-auc-results.csv']
1 min, 24 sec: Loaded data with shape (2800000, 201)
1 min, 26 sec: Starting cross-validation
1 min, 26 sec: Using config: layers:128+128+64+32-learn_rate:0.001-batch_size:128-dropout_rate:0.2-bathcnorm:True
1 min, 27 sec: Starting fold 0
1 min, 29 sec: Model Summary:
Model: "sequential"
_________________________________________________________________
Layer (type)                 Output Shape              Param #   
=================================================================
dense (Dense)                (None, 128)               25728     
_________________________________________________________________
batch_normalization (BatchNo (None, 128)               512       
_________________________________________________________________
activation (Activation)      (None, 128)               0         
_________________________________________________________________
dropout (Dropout)            (None, 128)               0         
_________________________________________________________________
dense_1 (Dense)              (None, 128)               16512     
_________________________________________________________________
batch_normalization_1 (Batch (None, 128)               512       
_________________________________________________________________
activation_1 (Activation)    (None, 128)               0         
_________________________________________________________________
dropout_1 (Dropout)          (None, 128)               0         
_________________________________________________________________
dense_2 (Dense)              (None, 64)                8256      
_________________________________________________________________
batch_normalization_2 (Batch (None, 64)                256       
_________________________________________________________________
activation_2 (Activation)    (None, 64)                0         
_________________________________________________________________
dropout_2 (Dropout)          (None, 64)                0         
_________________________________________________________________
dense_3 (Dense)              (None, 32)                2080      
_________________________________________________________________
batch_normalization_3 (Batch (None, 32)                128       
_________________________________________________________________
activation_3 (Activation)    (None, 32)                0         
_________________________________________________________________
dropout_3 (Dropout)          (None, 32)                0         
_________________________________________________________________
dense_4 (Dense)              (None, 1)                 33        
=================================================================
Total params: 54,017
Trainable params: 53,313
Non-trainable params: 704
_________________________________________________________________

1 min, 29 sec: Starting training...
5 min, 3 sec: Epoch: 0  val_auc: 0.8036746287032381
9 min, 44 sec: Epoch: 1  val_auc: 0.8081455132683084
14 min, 25 sec: Epoch: 2  val_auc: 0.8109449279146912
…
