…
0 min, 0 sec: Outputs being written to ['012020-145131-validation-auc-results.csv', '012020-145131-train-auc-results.csv']
0 min, 6 sec: Loaded data with shape (2800000, 201)
0 min, 8 sec: Starting cross-validation
0 min, 8 sec: Using config: layers:64+64+64-learn_rate:0.001-batch_size:128-dropout_rate:0.5-bathcnorm:True
0 min, 8 sec: Starting fold 0
0 min, 12 sec: Model Summary:
Model: "sequential"
_________________________________________________________________
Layer (type)                 Output Shape              Param #   
=================================================================
dense (Dense)                (None, 64)                12864     
_________________________________________________________________
batch_normalization (BatchNo (None, 64)                256       
_________________________________________________________________
activation (Activation)      (None, 64)                0         
_________________________________________________________________
dropout (Dropout)            (None, 64)                0         
_________________________________________________________________
dense_1 (Dense)              (None, 64)                4160      
_________________________________________________________________
batch_normalization_1 (Batch (None, 64)                256       
_________________________________________________________________
activation_1 (Activation)    (None, 64)                0         
_________________________________________________________________
dropout_1 (Dropout)          (None, 64)                0         
_________________________________________________________________
dense_2 (Dense)              (None, 64)                4160      
_________________________________________________________________
batch_normalization_2 (Batch (None, 64)                256       
_________________________________________________________________
activation_2 (Activation)    (None, 64)                0         
_________________________________________________________________
dropout_2 (Dropout)          (None, 64)                0         
_________________________________________________________________
dense_3 (Dense)              (None, 1)                 65        
=================================================================
Total params: 22,017
Trainable params: 21,633
Non-trainable params: 384
_________________________________________________________________

0 min, 12 sec: Starting training...
5 min, 34 sec: Epoch: 0  val_auc: 0.7919115933492232
13 min, 11 sec: Epoch: 1  val_auc: 0.799853777075991
22 min, 3 sec: Epoch: 2  val_auc: 0.8031053816667366
…
