…
0 min, 0 sec: Outputs being written to ['011920-143657-validation-auc-results.csv', '011920-143657-train-auc-results.csv']
0 min, 6 sec: Loaded data with shape (2800000, 201)
0 min, 11 sec: Starting cross-validation
0 min, 11 sec: Using config: layers:64+64-learn_rate:0.001-batch_size:128-dropout_rate:0.5-bathcnorm:True
0 min, 12 sec: Starting fold 0
0 min, 23 sec: Model Summary:
Model: "sequential"
_________________________________________________________________
Layer (type)                 Output Shape              Param #   
=================================================================
dense (Dense)                (None, 64)                12864     
_________________________________________________________________
batch_normalization (BatchNo (None, 64)                256       
_________________________________________________________________
activation (Activation)      (None, 64)                0         
_________________________________________________________________
dropout (Dropout)            (None, 64)                0         
_________________________________________________________________
dense_1 (Dense)              (None, 64)                4160      
_________________________________________________________________
batch_normalization_1 (Batch (None, 64)                256       
_________________________________________________________________
activation_1 (Activation)    (None, 64)                0         
_________________________________________________________________
dropout_1 (Dropout)          (None, 64)                0         
_________________________________________________________________
dense_2 (Dense)              (None, 1)                 65        
=================================================================
Total params: 17,601
Trainable params: 17,345
Non-trainable params: 256
_________________________________________________________________

0 min, 23 sec: Starting training...
8 min, 9 sec: Epoch: 0	AUC: 0.7981270778593939
15 min, 59 sec: Epoch: 1	AUC: 0.8051030064398593
23 min, 52 sec: Epoch: 2	AUC: 0.8077566821762049
31 min, 41 sec: Epoch: 3	AUC: 0.8113537410210647
…
