…
0 min, 0 sec: Outputs being written to ['011920-215419-validation-auc-results.csv', '011920-215419-train-auc-results.csv']
0 min, 6 sec: Loaded data with shape (2800000, 201)
0 min, 11 sec: Starting cross-validation
0 min, 11 sec: Using config: layers:32+32-learn_rate:0.001-batch_size:128-dropout_rate:0.5-bathcnorm:True
0 min, 11 sec: Starting fold 0
0 min, 11 sec: Model Summary:
Model: "sequential"
_________________________________________________________________
Layer (type)                 Output Shape              Param #   
=================================================================
dense (Dense)                (None, 32)                6432      
_________________________________________________________________
batch_normalization (BatchNo (None, 32)                128       
_________________________________________________________________
activation (Activation)      (None, 32)                0         
_________________________________________________________________
dropout (Dropout)            (None, 32)                0         
_________________________________________________________________
dense_1 (Dense)              (None, 32)                1056      
_________________________________________________________________
batch_normalization_1 (Batch (None, 32)                128       
_________________________________________________________________
activation_1 (Activation)    (None, 32)                0         
_________________________________________________________________
dropout_1 (Dropout)          (None, 32)                0         
_________________________________________________________________
dense_2 (Dense)              (None, 1)                 33        
=================================================================
Total params: 7,777
Trainable params: 7,649
Non-trainable params: 128
_________________________________________________________________

0 min, 11 sec: Starting training...
0 min, 13 sec: Epoch: 0  AUC: 0.5316421421754667
0 min, 14 sec: Epoch: 1  AUC: 0.5427258805513017
0 min, 14 sec: Epoch: 2  AUC: 0.5978427325387842
0 min, 15 sec: Epoch: 3  AUC: 0.634383114721353
…
